…
n        plt.figure()\n        \n        plt.plot(epochs, loss, 'r', label='Trainig Loss')\n        plt.plot(epochs, val_loss, 'b', label='Validation Loss')\n        plt.title('Training and Validation Loss')\n        plt.legend(loc=0)\n        plt.figure()\n\n\n        plt.show()","execution_count":6,"outputs":[{"output_type":"stream","text":"Model: \"sequential_3\"\n_________________________________________________________________\nLayer (type)                 Output Shape              Param #   \n=================================================================\nconv2d_12 (Conv2D)           (None, 148, 148, 128)     3584      \n_________________________________________________________________\nmax_pooling2d_12 (MaxPooling (None, 74, 74, 128)       0         \n_________________________________________________________________\nconv2d_13 (Conv2D)           (None, 72, 72, 128)       147584    \n_________________________________________________________________\nmax_pooling2d_13 (MaxPooling (None, 36, 36, 128)       0         \n_________________________________________________________________\nconv2d_14 (Conv2D)           (None, 34, 34, 64)        73792     \n_________________________________________________________________\nmax_pooling2d_14 (MaxPooling (None, 17, 17, 64)        0         \n_________________________________________________________________\nconv2d_15 (Conv2D)           (None, 15, 15, 32)        18464     \n_________________________________________________________________\nmax_pooling2d_15 (MaxPooling (None, 7, 7, 32)          0         \n_________________________________________________________________\nflatten_3 (Flatten)          (None, 1568)              0         \n_________________________________________________________________\ndropout_3 (Dropout)          (None, 1568)              0         \n_________________________________________________________________\ndense_6 (Dense)              (None, 256)               401664    \n_________________________________________________________________\ndense_7 (Dense)              (None, 6)                 1542      \n=================================================================\nTotal params: 646,630\nTrainable params: 646,630\nNon-trainable params: 0\n_________________________________________________________________\nEpoch 1/25\n439/439 [==============================] - 28s 64ms/step - loss: 1.2185 - accuracy: 0.5083 - val_loss: 0.9653 - val_accuracy: 0.6393\nEpoch 2/25\n439/439 [================
…
>","image/png":"…\n"},"metadata":{"needs_background":"light"}},{"output_type":"display_data","data":{"text/plain":"<Figure size 432x288 with 1 Axes>","image/png":"…\n"},"metadata":{"needs_background":"light"}},{"output_type":"display_data","data":{"text/plain":"<Figure size 432x288 with 0 Axes>"},"metadata":{}},{"output_type":"stream","text":"Model: \"sequential_4\"\n_________________________________________________________________\nLayer (type)                 Output Shape              Param #   \n=================================================================\nconv2d_16 (Conv2D)           (None, 148, 148, 256)     7168      \n_________________________________________________________________\nmax_pooling2d_16 (MaxPooling (None, 74, 74, 256)       0         \n_________________________________________________________________\nconv2d_17 (Conv2D)           (None, 72, 72, 256)       590080    \n_________________________________________________________________\nmax_pooling2d_17 (MaxPooling (None, 36, 36, 256)       0         \n_________________________________________________________________\nconv2d_18 (Conv2D)           (None, 34, 34, 64)        147520    \n_________________________________________________________________\nmax_pooling2d_18 (MaxPooling (None, 17, 17, 64)        0         \n_________________________________________________________________\nconv2d_19 (Conv2D)           (None, 15, 15, 32)        18464     \n_________________________________________________________________\nmax_pooling2d_19 (MaxPooling (None, 7, 7, 32)          0         \n_________________________________________________________________\nflatten_4 (Flatten)          (None, 1568)              0         \n_________________________________________________________________\ndropout_4 (Dropout)          (None, 1568)              0         \n_________________________________________________________________\ndense_8 (Dense)              (None, 256)               401664    \n_________________________________________________________________\ndense_9 (Dense)              (None, 6)                 1542      \n=================================================================\nTotal params: 1,166,438\nTrainable params: 1,166,438\nNon-trainable params: 0\n_________________________________________________________________\nEpoch 1/25\n439/439 [==============================] - 34s 77ms/step - loss: 1.1701 - accuracy: 0.5337 - val_loss: 0.9455 - val_accuracy: 0.6383\nEpoch 2/25\n439/439 [============
…
>","image/png":"…\n"},"metadata":{"needs_background":"light"}},{"output_type":"display_data","data":{"text/plain":"<Figure size 432x288 with 1 Axes>","image/png":"…\n"},"metadata":{"needs_background":"light"}},{"output_type":"display_data","data":{"text/plain":"<Figure size 432x288 with 0 Axes>"},"metadata":{}},{"output_type":"stream","text":"Model: \"sequential_5\"\n_________________________________________________________________\nLayer (type)                 Output Shape              Param #   \n=================================================================\nconv2d_20 (Conv2D)           (None, 148, 148, 128)     3584      \n_________________________________________________________________\nmax_pooling2d_20 (MaxPooling (None, 74, 74, 128)       0         \n_________________________________________________________________\nconv2d_21 (Conv2D)           (None, 72, 72, 128)       147584    \n_________________________________________________________________\nmax_pooling2d_21 (MaxPooling (None, 36, 36, 128)       0         \n_________________________________________________________________\nconv2d_22 (Conv2D)           (None, 34, 34, 64)        73792     \n_________________________________________________________________\nmax_pooling2d_22 (MaxPooling (None, 17, 17, 64)        0         \n_________________________________________________________________\nconv2d_23 (Conv2D)           (None, 15, 15, 32)        18464     \n_________________________________________________________________\nmax_pooling2d_23 (MaxPooling (None, 7, 7, 32)          0         \n_________________________________________________________________\nflatten_5 (Flatten)          (None, 1568)              0         \n_________________________________________________________________\ndropout_5 (Dropout)          (None, 1568)              0         \n_________________________________________________________________\ndense_10 (Dense)             (None, 512)               803328    \n_________________________________________________________________\ndense_11 (Dense)             (None, 6)                 3078      \n=================================================================\nTotal params: 1,049,830\nTrainable params: 1,049,830\nNon-trainable params: 0\n_________________________________________________________________\nEpoch 1/25\n439/439 [==============================] - 29s 66ms/step - loss: 1.1649 - accuracy: 0.5364 - val_loss: 0.9235 - val_accuracy: 0.6513\nEpoch 2/25\n439/439 [============
…
>","image/png":"…\n"},"metadata":{"needs_background":"light"}},{"output_type":"display_data","data":{"text/plain":"<Figure size 432x288 with 1 Axes>","image/png":"…\n"},"metadata":{"needs_background":"light"}},{"output_type":"display_data","data":{"text/plain":"<Figure size 432x288 with 0 Axes>"},"metadata":{}},{"output_type":"stream","text":"Model: \"sequential_6\"\n_________________________________________________________________\nLayer (type)                 Output Shape              Param #   \n=================================================================\nconv2d_24 (Conv2D)           (None, 148, 148, 256)     7168      \n_________________________________________________________________\nmax_pooling2d_24 (MaxPooling (None, 74, 74, 256)       0         \n_________________________________________________________________\nconv2d_25 (Conv2D)           (None, 72, 72, 256)       590080    \n_________________________________________________________________\nmax_pooling2d_25 (MaxPooling (None, 36, 36, 256)       0         \n_________________________________________________________________\nconv2d_26 (Conv2D)           (None, 34, 34, 64)        147520    \n_________________________________________________________________\nmax_pooling2d_26 (MaxPooling (None, 17, 17, 64)        0         \n_________________________________________________________________\nconv2d_27 (Conv2D)           (None, 15, 15, 32)        18464     \n_________________________________________________________________\nmax_pooling2d_27 (MaxPooling (None, 7, 7, 32)          0         \n_________________________________________________________________\nflatten_6 (Flatten)          (None, 1568)              0         \n_________________________________________________________________\ndropout_6 (Dropout)          (None, 1568)              0         \n_________________________________________________________________\ndense_12 (Dense)             (None, 512)               803328    \n_________________________________________________________________\ndense_13 (Dense)             (None, 6)                 3078      \n=================================================================\nTotal params: 1,569,638\nTrainable params: 1,569,638\nNon-trainable params: 0\n_________________________________________________________________\nEpoch 1/25\n439/439 [==============================] - 33s 75ms/step - loss: 1.1824 - accuracy: 0.5221 - val_loss: 0.8938 - val_accuracy: 0.6703\nEpoch 2/25\n439/439 [============
…
